script/blazeface_sim.onnx (onnx, 416013 bytes, 70 tensors)

1 f4 [24, 3, 5, 5]
000000 20 b9 16 3d e9 34 4e bd 7a e8 a8 bd f8 5d d1 bd
       0.036797643 -0.050343428 -0.082474664 -0.10223001
000010 5a fd 24 bd 8c 22 1e bd fd 9a 1a 3d 25 be a8 3d
       -0.040280677 -0.038607165 0.037745465 0.08239392
000020 01 20 d3 bb 45 0a 9c 3b da d5 f2 3c 13 96 bc 3d
       -0.006443024 0.0047619664 0.029642988 0.09208312
000030 be 10 c3 3d 49 76 da bc d6 16 83 3b 73 a8 10 3d
       0.09524678 -0.02666773 0.004000525 0.035316896
000040 ef 10 b8 bc 0d d1 6c bd 40 5d 6b bd 07 b0 64 3c
       -0.022469012 -0.057816554 -0.057461977 0.013957984
000050 ab 8b 39 3d 82 c6 b2 3c e9 85 44 bb fb a7 8d 3c
       0.045299213 0.021823172 -0.0029987043 0.017292013
000060 04 30 3c 3d 7a d8 6b bd 5c f6 aa bc 79 d0 97 3c
       0.04594423 -0.057579495 -0.020869426 0.018532025
000070 89 13 38 3c 40 c9 2f 3d ef 73 b3 bd 8c ba f4 3d
       0.011235126 0.042916536 -0.08762347 0.119496435
000080 9b 4b 52 3e 7c fa f5 3d e9 c7 b9 3d eb fa 45 bc
       0.20536654 0.12010667 0.09071333 -0.012083749
000090 cb f4 02 3e 69 ec 07 3e 33 a0 d8 3c 6e 2d 32 3d
       0.12788694 0.13273777 0.026443576 0.043500356
0000a0 33 4d 6c bd c7 46 85 bd 78 cd df bd 90 15 d7 bd
       -0.05769081 -0.0650764 -0.10927862 -0.105021596
0000b0 a4 8a 8a bc f1 ae 64 bd 8a 05 ca bd be a0 f7 bd
       -0.016911812 -0.0558309 -0.09864338 -0.12091206
0000c0 94 88 ac bd 60 8a 0a bd ec 81 8a bd fb cc e9 bb
       -0.08424488 -0.03382337 -0.06763062 -0.0071350313
0000d0 f7 e3 01 3d bc 8f e5 bc 96 3c 45 3c b5 91 21 bd
       0.031711545 -0.02802264 0.012038371 -0.039445598
0000e0 35 15 0b 3e ee 67 3b 3e bd ee 95 3d 9b 47 83 3d
       0.13582309 0.18301365 0.07320926 0.06410142
0000f0 df 05 a3 3c 82 4c 05 3e d0 da d9 3d 81 b0 de 3b
       0.01990026 0.13017467 0.10637438 0.0067959432
000100 28 79 80 3c 03 1f 26 bd 9a 22 57 bd 98 78 86 bd
       0.015682772 -0.04055692 -0.052523233 -0.0656597
000110 a0 64 82 bd 39 76 aa 3b 96 6c 1e bd 05 ad 8c bd
       -0.06366849 0.0052020815 -0.038677774 -0.06868938
000120 5b 3d b1 bd 71 12 6d bd 26 fb 07 bd f2 a7 35 3d
       -0.08654281 -0.057878915 -0.0331985 0.04434962
000130 bd b4 7b bd a1 77 3e bd d3 89 99 3c 0c 56 1f 3e
       -0.061451662 -0.046500806 0.018742478 0.15560168
000140 8f 88 34 bd 0c b7 3c be 2c c0 3f be 32 ba ff bd
       -0.044075545 -0.18429202 -0.18725652 -0.12486686
000150 82 ad 85 3d 49 e2 33 3c 97 b3 22 bd 11 f3 25 bd
       0.065272346 0.010979244 -0.03972205 -0.04051501
000160 07 07 a5 bc 45 d1 53 3d 10 fd 58 bc 71 e3 06 3d
       -0.020144952 0.051713247 -0.013243929 0.03293175
000170 8f 3e c7 3c 62 26 a2 3c 36 38 16 3c e2 59 6b bd
       0.024321822 0.019793693 0.009168675 -0.057458766
000180 71 d1 72 3b e6 bf 82 bb 34 26 b2 36 a0 2c f9 bb
       0.0037051106 -0.003990161 5.309261e-06 -0.0076041967
000190 c4 4e 8b 3d 95 7a 3e 3e 81 92 32 3e b6 34 87 3d
       0.06802133 0.18601449 0.174387 0.06601851
0001a0 cb 52 68 bd 8a 2a 3d 3e 74 f8 d1 3e 2e f2 f7 3e
       -0.056719583 0.18473259 0.41009867 0.48426956
0001b0 35 79 6e 3e 4c b4 91 bd 21 78 5d 3d 0f 8e ad 3e
       0.23288424 -0.07114467 0.054069642 0.33897445
0001c0 b5 9d b9 3e 44 aa 07 3e da 9d 68 bd 2c 8a 2d bd
       0.36253133 0.13248545 -0.056791164 -0.0423681
0001d0 47 f8 a4 3b 0c 68 16 3d 92 07 b4 bc 3d 52 a9 bd
       0.00503448 0.03672032 -0.021976266 -0.08267639
0001e0 9e 13 80 bd af ab c1 bd 37 ed 87 bd 8a b0 be bd
       -0.06253742 -0.09456574 -0.06637042 -0.09311016
0001f0 6d d7 a7 bd 67 58 91 bd ed a5 1c be ba a1 09 be
       -0.08195386 -0.070969395 -0.1529767 -0.134406
000200 1c e4 25 be b5 b1 58 bd a2 20 1e be 93 7c 85 be
       -0.16200298 -0.05290385 -0.15442136 -0.26071605
000210 5e 71 74 be a4 23 3a be 08 67 cb bb 26 00 85 bd
       -0.23871371 -0.18177658 -0.0062073506 -0.06494169
000220 b5 92 3b be fa 03 70 be 59 52 f0 bd 1b 76 bd 3c
       -0.18317683 -0.23439017 -0.117344566 0.023127606
000230 40 b9 a6 3c f5 52 8b bd 8c 2a aa bd 7d 41 91 bc
       0.020352006 -0.06802932 -0.083088964 -0.017731423
000240 24 5d 84 3d 5c 37 04 3e e6 91 c6 3d 84 69 f0 3d
       0.06463078 0.12911743 0.09695797 0.117388755
000250 1f 6f c6 3d ad de c2 3d 2a e8 11 bd 0e b6 c1 3c
       0.096891634 0.09515128 -0.0356218 0.02364638
000260 46 46 75 3c b5 8c bb 3c 07 6b aa bd bb a4 c7 3d
       0.014970368 0.022894243 -0.08321195 0.09748217
000270 2d c2 ff 3d 19 f7 8a 3d 51 e4 20 3e 80 d5 25 3d
       0.12488208 0.067854114 0.15712096 0.040486813
000280 50 a9 b4 3c 49 c2 bc 3d 16 7c c5 3d c1 34 b9 3d
       0.02205339 0.092167445 0.09642808 0.09043265
000290 89 2d f9 ba e0 34 ae bc 3d a4 04 3e fb 7b 02 3e
       -0.0019010763 -0.021265447 0.12953277 0.12742607
0002a0 54 50 01 3e 97 63 cd 3c 65 24 1a be 5c c4 02 bd
       0.12628299 0.025071902 -0.15052946 -0.031925544
0002b0 b4 a4 6a bc ed f7 77 3d 56 d6 09 3c 77 54 b6 bc
       -0.014321495 0.060539175 0.008412918 -0.022257073
0002c0 9d a7 bd ba d0 b6 92 bb 7d ce 06 3d 06 9e 52 bd
       -0.0014469508 -0.0044773594 0.032911766 -0.051420234
0002d0 bb d4 62 bc b3 bb b9 bd 89 05 0c be da bb 85 3c
       -0.013844664 -0.09069004 -0.13673986 0.016324926
0002e0 bf 0e e5 3b 92 9c 2b bd 59 8c dc bd 62 4e 1f be
       0.0069902833 -0.041897364 -0.10768957 -0.15557244
0002f0 1f b1 83 bd 53 c9 aa bd 55 69 8d 3c 16 51 e7 3c
       -0.064302675 -0.08339181 0.01726214 0.028236907
000300 04 7f 35 bd 55 a3 57 bd 5a 47 95 bd 86 88 88 bc
       -0.044310585 -0.052646 -0.07289 -0.016666662
000310 82 bf f3 3b 56 bc 9d 3b 4e f6 a3 ba 36 a7 16 3c
       0.007438601 0.004813711 -0.0012509318 0.00919514
000320 78 21 87 3d f4 c4 26 3d f5 ce 79 3c 57 0e 09 3d
       0.065981805 0.040715173 0.015247096 0.03346094
000330 05 2f 9b bd 4b cc 9d 3d dd 7c a0 bb 6a f1 c8 bc
       -0.07577328 0.077049814 -0.0048976974 -0.024529178
000340 28 e6 8b 3d 61 6e b5 3c d5 f5 b7 3c f7 2f 28 bd
       0.06831008 0.02214736 0.022456089 -0.041061368
000350 b6 3c a5 bd 15 83 96 bb 01 8b bf bc 1a fe 03 3d
       -0.0806822 -0.004593263 -0.023381712 0.032224752
000360 01 24 0c 3c e5 28 89 bd b7 0b 30 bd cf 61 d9 bc
       0.008553506 -0.06697253 -0.042979922 -0.026535897
000370 4a 75 02 3d 73 1d b6 3c 2e 8a 3e bc 91 44 10 3d
       0.031850137 0.02223084 -0.011629624 0.03522164
000380 d6 49 50 3d a7 74 61 bd c5 a4 89 bd 53 a1 20 3d
       0.050851665 -0.05504289 -0.067208804 0.03921635
000390 e8 29 1d 3d 4c 5c 4c bd 95 f2 12 3d a0 bb 91 3d
       0.038370043 -0.04989271 0.035875876 0.07115865
0003a0 5c 72 57 3e 82 8f 7a 3e 2b 2e 41 3d 76 a4 be 3c
       0.21039718 0.24468806 0.04716317 0.02327178
0003b0 25 67 ed bc 7d 06 ef bc 7c bd b9 3d f4 0e 6a 3d
       -0.028979847 -0.029177899 0.090693444 0.057143167
0003c0 2d d7 50 3c 80 f3 b3 bd 4c 4c 2b be df 49 00 be
       0.012746614 -0.08786678 -0.16728324 -0.1252818
0003d0 af 85 87 bd 57 5a 75 bc 18 3d de bc a3 d3 34 bd
       -0.06617295 -0.014975152 -0.027128741 -0.044147145
0003e0 f7 5c 33 bb ec 68 11 3c 76 75 3d bc 3a 50 b2 bd
       -0.0027368644 0.008875113 -0.011563649 -0.08706708
0003f0 e0 01 94 bd 84 c9 64 bd 73 e9 13 bc ae f7 87 bc
       -0.0722692 -0.055856243 -0.009027827 -0.016597595

10 f4 [28]
000000 3d 54 43 3e b2 88 05 3e 26 a8 eb 3d e2 bf 35 3f
       0.19075103 0.13040426 0.11506681 0.70995915
000010 6c 5b 33 be 7b 3c 2c bd f4 03 2a 3e 7b dc 0f 3e
       -0.17515343 -0.042049866 0.1660307 0.1404895
000020 f6 4c 9a be c7 ce 13 bd bb f0 87 bf 4f 31 28 bf
       -0.30136842 -0.03608587 -1.062034 -0.6570024
000030 ec b9 16 be 39 28 89 3f b8 40 28 bf 75 f4 30 3e
       -0.14719361 1.07154 -0.6572375 0.17280753
000040 6a 67 42 3e a7 90 05 bf f0 c0 20 3d 31 0d 7e 3f
       0.18984762 -0.52173847 0.0392465 0.9923888
000050 85 ed 2c 3e e1 dc ba bd 78 67 e4 be c4 f2 3f bc
       0.16887482 -0.091241606 -0.4461019 -0.011715595
000060 bc f4 d3 bd c5 fb de 3d 79 a1 75 3c 86 87 d0 bd
       -0.10349414 0.10887865 0.014992111 -0.10182099

11 f4 [28, 1, 3, 3]
000000 a0 05 8a be 2e 29 a4 be 2a da 3f bd 56 d5 ef be
       -0.26957417 -0.32062668 -0.046838917 -0.4684245
000010 02 1c 13 bf fb 8f f8 bd fa 09 ab be 76 82 af be
       -0.5746461 -0.12136837 -0.3340605 -0.3427922
000020 1b e4 e0 bd f1 e3 52 3e 0f 0b e5 3e 3b 9d 90 3e
       -0.10981008 0.20594765 0.44735 0.28244957
000030 d5 78 63 3e c5 93 dd 3e 5c c8 9a 3e 19 44 4e 3d
       0.22214063 0.43276802 0.30230987 0.05035791
000040 14 1f 98 3d 7e d5 8c 3d ed 32 ec be 92 d9 62 bf
       0.07427803 0.06876658 -0.46132603 -0.88613236
000050 dc 20 0c bf 2c 2f 70 bf 98 ba c7 bf b2 0e 3b bf
       -0.5473764 -0.9382198 -1.5603819 -0.730693
000060 6a d9 08 bf 44 19 31 bf 95 d2 8e be 8c 84 10 bf
       -0.5345675 -0.6917918 -0.27895036 -0.5645225
000070 74 94 2b bf 3c 7a 37 be 10 78 d4 be 94 5f 12 bf
       -0.67023396 -0.17917722 -0.4149785 -0.5717709
000080 18 a1 38 be 4e 94 4d 3d 18 63 fd 3c fc 7b 59 bc
       -0.18030202 0.050190262 0.03093104 -0.013274189
000090 f9 f1 a1 be 3c 7d 63 bf 07 69 f9 be b1 7c 54 bf
       -0.31629923 -0.8886297 -0.48712942 -0.83002764
0000a0 30 49 8d bf e0 24 1f bf 13 6b a9 be d9 24 12 bf
       -1.103796 -0.6216564 -0.33089504 -0.57087475
0000b0 fd 16 85 be 35 93 8c 3e 67 fe c6 3e 54 66 91 3e
       -0.259941 0.2745606 0.3886597 0.28398383
0000c0 48 22 13 3f 05 b7 50 3f e9 c2 eb 3e 4d 60 ac 3e
       0.57474184 0.81529266 0.46047142 0.33667222
0000d0 73 09 e2 3e 04 82 37 3e ed 72 4e 3e d0 2e 16 3f
       0.44147834 0.17920691 0.20161028 0.5866518
0000e0 ec cd e2 3e 89 c6 10 3f f0 b5 84 3f 8f 65 0e 3f
       0.4429773 0.5655294 1.0368023 0.55623716
0000f0 96 80 d8 3e 2d 36 12 3f 65 1c 6d 3e c0 7f 8e 3e
       0.42285603 0.57113916 0.23155363 0.2783184
000100 7a ba 16 3f b1 01 03 3f c9 1e cd 3e 30 35 5f 3f
       0.5887829 0.51174456 0.4006255 0.8719053
000110 b6 33 f5 3e 75 97 56 3e 62 2d e3 3e 2c 15 2e 3e
       0.47891015 0.20956214 0.44370562 0.17000264
000120 92 bb 97 be c5 58 38 bf 2b 1a 09 bf 37 6c 23 bf
       -0.29635292 -0.7201045 -0.53555554 -0.63837
000130 83 39 83 bf f9 4c 4e bf c8 c8 5f be f5 ea f1 be
       -1.0251926 -0.805862 -0.21853936 -0.4724957
000140 3c e6 93 be 81 14 51 be 87 cc 5d be f0 c7 84 bc
       -0.28886592 -0.20417978 -0.21660052 -0.016208619
000150 69 63 dd be db cb 07 bf 83 c6 2e be 5f 34 6c be
       -0.43239906 -0.53045434 -0.17067914 -0.23066853
000160 a8 e9 a8 be 27 16 11 be fe a5 01 bd f7 19 ba 3c
       -0.32990766 -0.14168607 -0.031652443 0.02271746
000170 ff d9 7d be a8 11 a3 3c 69 8c 85 3d 5c 00 a4 be
       -0.2479019 0.01990588 0.06520922 -0.32031524
000180 76 ae 52 be ee 87 9c be 32 5f 0b be d2 2e 8e be
       -0.20574364 -0.30572456 -0.13610533 -0.27770096
000190 1a 8f cb be 6b f5 4e be e5 d4 ef be 46 76 37 bf
       -0.39757615 -0.20210807 -0.46842113 -0.71664846
0001a0 30 e3 b7 be a1 b9 67 be 54 a9 b3 be 8d 9c 33 be
       -0.35915518 -0.22629406 -0.35090125 -0.17540188
0001b0 4f d0 73 be 4f 45 37 bf 1b 38 ff be 48 d6 ed be
       -0.23809932 -0.7159013 -0.49847493 -0.46452546
0001c0 7d df 69 bf ab d6 10 bf c6 84 47 be 7b 75 e8 be
       -0.9135664 -0.5657756 -0.19484243 -0.4540213
0001d0 e2 f6 71 be cc f6 1e bf 75 a5 22 bf 19 93 9c bd
       -0.23629335 -0.6209533 -0.6353372 -0.07645244
0001e0 fa 7c 11 bf 4d aa 20 bf 94 a1 dc bd 0f fc 13 be
       -0.56831324 -0.6275986 -0.10773006 -0.14451621
0001f0 74 b4 c2 bd ba b1 88 ba 80 70 b7 3e ed 39 d0 3e
       -0.09507075 -0.0010428943 0.35828018 0.40669194
000200 47 92 9f 3d 83 13 eb 3e cb 0c 15 3f 2b ee 42 3e
       0.07791572 0.45913324 0.58222646 0.19036166
000210 a6 3f 6a 3d 51 22 81 3e 52 13 4b 3e e1 7d 01 3f
       0.057189606 0.25221494 0.19831589 0.505827
000220 40 31 4d 3f 9b d4 f1 3e c6 2c 43 3f 2a 9e a7 3f
       0.80153275 0.47232518 0.76240194 1.3095143
000230 6d c3 50 3f a5 e5 b7 3e 2a bf 33 3f 2a 56 e7 3e
       0.81548196 0.35917392 0.7021357 0.45182925
000240 95 9b 07 3f 02 97 32 3f 4a 3d a4 3d 41 3c 8d 3e
       0.52971774 0.6976167 0.080195025 0.27585033
000250 02 d8 de 3d 03 3f 8e be fb 5f 53 be 83 0e ca be
       0.10881044 -0.2778245 -0.20642082 -0.39464197
000260 c8 1b d2 be 7a 1e ab be 94 59 f9 bd 80 6b 66 3e
       -0.4103682 -0.3342169 -0.12175289 0.22501945
000270 ca 1f 83 be 08 80 b5 3e f8 1c 3d 3f a7 4c 78 3d
       -0.2561019 0.35449243 0.7387233 0.060619976
000280 2c 6a 05 3f 2d 45 0d 3f 58 bf c4 3e b6 fe a1 3e
       0.5211513 0.5518368 0.38427234 0.31639642
000290 ae ee 7c bd fd a8 bc 3e 7e 0d 92 3e 2a 16 ae bd
       -0.06175106 0.36847678 0.2852592 -0.08500321
0002a0 fa aa 71 39 e1 70 15 bd 84 0c 31 bd 61 35 0f be
       0.00023047245 -0.036484603 -0.043224826 -0.13985206
0002b0 60 70 09 bf a0 24 4c be 7e e5 91 be 34 c1 11 bf
       -0.53687096 -0.19935846 -0.284954 -0.5693543
0002c0 09 81 41 be 0a f6 92 bd 18 80 82 bd 01 40 92 bd
       -0.1889688 -0.071758345 -0.06372088 -0.07141114
0002d0 bf ea bc 3e 45 32 c8 3e b3 a1 70 3e 75 2c 1c 3f
       0.36897847 0.39100853 0.23499183 0.61005336
0002e0 e3 84 56 3f 20 c8 d3 3e 45 01 aa 3e b5 69 0c 3f
       0.8379652 0.4136362 0.33204094 0.54848796
0002f0 f9 48 82 3e 8d 8a b3 3e 5b f9 f0 3e e2 ca 1b 3e
       0.254463 0.35066643 0.47065243 0.15214112
000300 de 94 1f 3f df da 69 3f 4d 54 d2 3e 7e 59 ab 3e
       0.6233653 0.91349596 0.4107994 0.33466715
000310 c3 89 0b 3f 24 64 94 3e 8f 76 8e 3e dd fe cc 3e
       0.5450708 0.2898265 0.27824828 0.40038195
000320 d3 5e 40 3e b4 fb c0 3e 89 d9 3f 3f da 0b 16 3f
       0.18786173 0.37692034 0.7494131 0.58611834
000330 03 13 b7 3e 31 f6 26 3f c0 b2 23 3f ce af 23 3f
       0.35756692 0.6521941 0.63944626 0.6394013
000340 cc c2 0e 3f a1 2f 0f 3e 46 0c 0f 3f 9c b7 ed 3e
       0.55765986 0.13983013 0.558781 0.46429145
000350 42 e6 91 3d 94 8d 99 3d ff 9c cd 3d 99 9d 17 be
       0.07123996 0.07497707 0.1003971 -0.14806212
000360 1f 12 fe be df 60 55 bf 4d d8 fa be b5 e3 3f bf
       -0.496232 -0.8335094 -0.4899315 -0.7495683
000370 f7 de b6 bf 01 3b 6a bf 62 a6 dc be 38 44 3d bf
       -1.4286793 -0.9149628 -0.4309569 -0.7393222
000380 a7 34 b5 be 7d 43 2e bf d0 d4 b2 bf dc 2d 84 bf
       -0.35391733 -0.6807173 -1.3971195 -1.0326495
000390 44 60 40 bf 8c f3 b4 bf cc 16 84 bf c8 b0 09 be
       -0.7514689 -1.4136825 -1.0319457 -0.13446343
0003a0 82 f9 b7 be f5 83 7a be b1 ff c6 3e 44 25 68 3f
       -0.35932547 -0.244644 0.38866952 0.9068186
0003b0 06 dc 49 3f d4 e0 34 3f bb 0d bc 3f c2 8d 67 3f
       0.78851354 0.7065556 1.469169 0.9045068
0003c0 c4 97 0b 3f c4 87 2e 3f e6 e7 7f 3e 59 dc 07 bf
       0.5452845 0.6817591 0.24990806 -0.530706
0003d0 8f 31 a6 be f0 3e ac be 1d b9 80 bf dd bf 09 bf
       -0.32459685 -0.33641768 -1.0056492 -0.53808385
0003e0 a0 60 f0 3d c4 4b 06 bf 72 1a d1 be 94 4d b5 3e
       0.1173718 -0.5245936 -0.4084049 0.3541075

12 f4 [28]
000000 00 00 00 00 00 00 00 00 00 00 00 00 00 00 00 00
       0.0 0.0 0.0 0.0
000010 00 00 00 00 00 00 00 00 00 00 00 00 00 00 00 00
       0.0 0.0 0.0 0.0
000020 00 00 00 00 00 00 00 00 00 00 00 00 00 00 00 00
       0.0 0.0 0.0 0.0
000030 00 00 00 00 00 00 00 00 00 00 00 00 00 00 00 00
       0.0 0.0 0.0 0.0
000040 00 00 00 00 00 00 00 00 00 00 00 00 00 00 00 00
       0.0 0.0 0.0 0.0
000050 00 00 00 00 00 00 00 00 00 00 00 00 00 00 00 00
       0.0 0.0 0.0 0.0
000060 00 00 00 00 00 00 00 00 00 00 00 00 00 00 00 00
       0.0 0.0 0.0 0.0

13 f4 [32, 28, 1, 1]
000000 93 db f2 3d 76 05 3a 3e 48 e8 42 3c 9b 50 dc 3c
       0.11858287 0.18166146 0.0118962005 0.026893904
000010 01 6a 93 bc 27 65 44 be c5 93 65 3c 52 b6 5d be
       -0.017994883 -0.19179212 0.014012282 -0.21651581
000020 93 2b 16 3f bf 96 30 3d 77 e3 5f 3d db f6 a3 bc
       0.5866024 0.043112513 0.054660287 -0.02001517
000030 66 12 14 bd b9 08 7d 3d aa 5b 03 be c1 3f 8c 3e
       -0.03615036 0.061775897 -0.12827936 0.2739239
000040 92 09 a2 3d 26 a5 00 3e c0 ca 8d 3d 82 e7 9b 3d
       0.07911982 0.12562999 0.06923437 0.07612516
000050 a0 e4 86 3d a9 f8 92 3e 1e 90 9e bd ff 26 8a 3e
       0.065865755 0.28705338 -0.07742332 0.26982877
000060 e6 e3 36 3e 18 36 fa bd b1 61 11 3e 4e fa 5c bd
       0.17860374 -0.12217349 0.14197423 -0.053949647
000070 9d 43 88 be c4 07 69 be 36 84 8e 3e dc c6 7d bd
       -0.26614085 -0.22756869 0.27835244 -0.061957225
000080 97 a7 05 3e 48 9b 6e 3c 09 1d 7f be a4 22 a7 bc
       0.13052212 0.014563389 -0.2491342 -0.02040226
000090 0f bc 91 3d 0d 3f 0a bc ad 4a a6 bb f9 d3 b5 3e
       0.071159475 -0.008437884 -0.00507482 0.35513285
0000a0 e0 56 7f be 15 7f 98 bd 19 51 1c 3e 3a 9d f9 bd
       -0.24935484 -0.07446114 0.15265311 -0.12188192
0000b0 a9 03 15 be 3a 0f 13 3e ca fc 58 3d 09 a3 84 3c
       -0.14552177 0.14361277 0.052975453 0.016191022
0000c0 aa 40 0f 3d 1c 07 35 3e 0b e9 40 3e ab 17 de bd
       0.034973778 0.17678493 0.18838899 -0.10844358
0000d0 cc d7 25 3e 71 56 d6 3d a3 22 69 3d fc c3 cc bd
       0.16195601 0.10465706 0.056917798 -0.099983186
0000e0 b6 b4 87 3e 7a 92 12 be ae f7 2c be f7 a4 7c 3d
       0.2650506 -0.14313689 -0.16891357 0.06168076
0000f0 b2 1c 8b be 9e b9 ba 3e 32 2d 7b be 13 90 1c be
       -0.2717033 0.3646974 -0.2452896 -0.15289335
000100 f7 49 98 3d ec a8 12 3f 30 7a 43 3e c6 83 05 3d
       0.07435983 0.57289004 0.1908958 0.032596372
000110 2e a0 f5 3e 8a 71 6d 3e d0 81 66 be c3 57 69 bd
       0.4797377 0.23187843 -0.22510457 -0.05696846
000120 e4 41 9e 3e 23 50 56 3b 0b 9f 8b 3d 5a 5d 52 3d
       0.30909646 0.0032701574 0.068174444 0.05135856
000130 97 d6 d3 3e 1c ab 35 bd fb ad 40 3e 0b 26 ab be
       0.41374657 -0.044352636 0.18816368 -0.33427462
000140 83 15 3c 3d b8 3f 84 3d bb da c6 3b 8b 74 2b bd
       0.045918953 0.06457466 0.006068555 -0.04185919
000150 46 f3 18 3e 39 13 4c be 97 4d e7 3c 15 fd 32 3f
       0.14936551 -0.19929208 0.02823524 0.6991742
000160 8c ad 09 be f9 30 1e be 77 e9 98 3d 02 f1 19 3c
       -0.13445109 -0.15448369 0.07466405 0.00939584
000170 d7 ac e3 3d fe 56 f0 3c 9d af 2d be 92 40 d7 3a
       0.11116951 0.029338356 -0.16961522 0.0016422442
000180 52 36 32 be e0 09 8f 3e 02 c4 17 bd 16 af d8 3d
       -0.17403534 0.27937222 -0.037052162 0.1058027
000190 e4 91 5f bd 7a 47 f8 3d b5 4f 8d 3d 04 f2 cf bc
       -0.05458249 0.12123008 0.068999685 -0.025383957
0001a0 f3 a3 cd 3d 5e c5 cd 3e 78 d9 81 3d 31 dd a1 3e
       0.100410365 0.40189642 0.06340307 0.31614068
0001b0 a5 ff ba be e3 0a 6d 3c f2 ec 8b 3d 80 98 c7 bd
       -0.36523166 0.014467928 0.06832303 -0.09745884
0001c0 15 eb 5c 3c 76 b2 00 bd d0 7b 53 be 11 72 01 be
       0.013483782 -0.031420194 -0.206527 -0.12641169
0001d0 6c 2a 7f be 5b 28 8c 3e bd 23 51 bd 73 2f f1 be
       -0.24918526 0.2737454 -0.051059473 -0.47106513
0001e0 47 d3 24 3c 32 b0 00 3b 2e c5 1c be 3b 5a fb be
       0.010060138 0.001963627 -0.15309593 -0.49092278
0001f0 b8 be 2c 3e 07 08 0e 3d fd b3 5c bc 2a 98 e3 3e
       0.16869628 0.034675624 -0.013470647 0.4445203
000200 55 ec 84 3e 91 70 20 be 7f 69 c5 bd de f1 f5 3c
       0.25961557 -0.1566794 -0.096392624 0.030022558
000210 b4 96 ee be 52 eb de be 6f 4d b2 bc da 9b 17 bd
       -0.46599352 -0.4353891 -0.021765439 -0.037013866
000220 13 fc 88 3e 8c bd e1 3e c9 ec 32 bf 2c 16 e5 be
       0.26754817 0.44089925 -0.69892555 -0.44743478
000230 8a d2 fe 3c c1 eb 85 be 56 92 d7 be 15 80 aa be
       0.031106252 -0.26156428 -0.42103833 -0.33300844
000240 6f 0d 39 be da 6b ac 3c 2e 2f 13 3e 59 03 18 bd
       -0.18071531 0.021047521 0.14373466 -0.037112568
000250 1e 98 81 3c 68 9f 38 bd 59 75 7c 3d 7a e4 95 bd
       0.015819605 -0.045073897 0.06163535 -0.07318969
000260 de 43 19 3e 5a e7 b9 3d f0 ea b5 be aa 35 0c 3e
       0.14967296 0.0907733 -0.35530806 0.13692346
000270 67 7c 28 bd 4e 23 8a 3e ac 64 28 bd 09 1f 08 3e
       -0.041134264 0.2698006 -0.041111633 0.13293089
000280 8d 79 8b be b5 c9 71 bd b2 b3 c6 3d 94 10 a6 bd
       -0.27241173 -0.059030253 0.09702243 -0.08108631
000290 d5 f1 96 be 13 33 2c bf 7b ce 03 be 46 3b 3a 3e
       -0.29481378 -0.67265433 -0.12871735 0.18186674
0002a0 ca 64 2a 3e 9d bf 27 3e 08 d2 38 3e 25 13 3d 3e
       0.1664001 0.16381688 0.1804887 0.18464334
0002b0 89 be d4 3c e5 13 0d be f0 86 26 3a ba 4b a7 3e
       0.02596976 -0.1377712 0.0006352505 0.32674962
0002c0 5d ee 85 bd ba 32 ce 3b 96 36 44 3d 21 b9 05 3e
       -0.06539605 0.006292668 0.04790362 0.13058902
0002d0 ec d2 65 3d f8 30 98 3e 20 9a aa 3c 12 db ad be
       0.056109354 0.2972486 0.020825446 -0.339562
0002e0 c8 8c ca bd 3e 27 aa be 8c 05 e3 bd 70 38 81 3e
       -0.09890133 -0.33233064 -0.11085042 0.2523837
0002f0 f7 0e cb 3e 8c a4 22 bd 2a 8a 67 be 86 fc 21 3c
       0.39659855 -0.039707705 -0.22611299 0.009886866
000300 f9 2a 74 be 36 41 45 bf 88 dc 52 3e 81 cb 9e be
       -0.23844518 -0.7705263 0.20591938 -0.31014636
000310 64 8e 9c 3e e2 0c d0 bd 2b 44 d0 bd 41 2b 9f bd
       0.30577385 -0.10158707 -0.10169252 -0.07771922
000320 a3 cf 96 bd f8 14 39 3e c4 7e f2 bc 28 50 26 3e
       -0.07363822 0.18074405 -0.029601462 0.16241515
000330 50 3a 7f 3d 05 9a b7 3d 11 75 9b 3d 7a 53 cb bd
       0.06231147 0.08964924 0.07590688 -0.09928031
000340 50 9c 13 bb 25 4e ae 3d c1 4b 8c be 09 d5 03 be
       -0.002252359 0.08510999 -0.27401546 -0.12874235
000350 0f ce 7b 3e c0 3c 77 3c 72 3c 0b be 23 42 29 3d
       0.24590324 0.0150901675 -0.13597277 0.04132284
000360 dd 96 70 3e 53 3b 81 3e 2b 8d 42 be e2 b9 17 3d
       0.2349505 0.25240573 -0.18999164 0.037042506
000370 25 5e 3a bb d2 f5 56 bd a1 04 4c 3e 01 5f 3d 3e
       -0.0028437462 -0.052480526 0.19923641 0.18493272
000380 fe b1 c5 bc b7 61 d9 bb da 14 d1 be 95 60 07 3e
       -0.024132725 -0.006633963 -0.4083622 0.13220437
000390 70 a8 fa 3d fe a1 5b 3e 65 7a 04 be 2e f3 06 be
       0.12239158 0.21448514 -0.12937315 -0.13178703
0003a0 a0 df 93 3d be 29 4b be 81 fb 93 bc d2 5d 56 3d
       0.072203875 -0.19840142 -0.018064262 0.052335568
0003b0 8a 97 d1 3d e2 b1 29 3e 8f c5 44 3c 00 2d a1 be
       0.10233982 0.16571763 0.012009992 -0.31479645
0003c0 06 dd f1 bd 5a 4b a2 bd a5 26 54 3d 92 f9 71 3e
       -0.11809735 -0.079245284 0.051794667 0.2363036
0003d0 5a db 15 3d 29 a1 76 bd 51 00 89 be 82 f1 17 be
       0.036586143 -0.060212288 -0.26758054 -0.14838222
0003e0 b0 92 2a 3e 21 45 e9 be 31 80 5a 3e 84 da 26 3d
       0.1665752 -0.45560554 0.21337964 0.040735736
0003f0 66 89 5a bd 46 04 7a bc 87 e6 0f be 95 f8 69 be
       -0.05335369 -0.015259808 -0.14052783 -0.22848733

14 f4 [32]
000000 23 24 94 bc e8 74 b5 bd 0d 75 a0 3f 9f 3d c3 3f
       -0.018083638 -0.08860189 1.2535721 1.525318
000010 2c ee 61 3f bc d7 47 be 45 80 e8 3f 84 63 58 3e
       0.88254046 -0.1951589 1.8164145 0.21131712
000020 48 83 ac 3f 92 7e b8 3c 47 5f 85 3e 0d 08 0f 3e
       1.3477564 0.02252129 0.26049253 0.13967915
000030 58 f1 fe bc c2 73 9f 3f 79 ad 68 c0 e9 b1 6b 3e
       -0.031120941 1.2457201 -3.635588 0.23017086
000040 10 c8 33 be 68 2e 1f bf 72 1f 85 3f cd bb 28 be
       -0.17556787 -0.62180185 1.0400221 -0.1647789
000050 2f ed f9 3f 80 9d 83 3f ca 6d c3 3f c1 fc d2 3f
       1.9525508 1.028244 1.526788 1.6483384
000060 33 4c 9e 3c 6f e6 d6 3f b0 ff 07 3d d5 eb 22 3f
       0.019323444 1.6789073 0.033202827 0.636411
000070 83 8a c3 3e 42 97 14 3f 21 f7 52 3f 4a 37 2e 3f
       0.38191614 0.580433 0.8240834 0.68053114

15 f4 [32, 1, 3, 3]
000000 cf 1d 9a 3d cb 21 09 3f 4a 7e b1 3e 29 1e 2b be
       0.07525217 0.5356719 0.34666663 -0.16710724
000010 7e 6c a9 bf 04 87 f3 bb ad 32 66 3e eb d4 55 be
       -1.3236234 -0.0074318666 0.22480269 -0.20882003
000020 d5 ae c0 bd e6 3b e7 bd af 6d 9d be 6c 67 a2 3b
       -0.094083466 -0.112907216 -0.30747744 0.0049561765
000030 18 ac be be 6d 36 71 bf d5 5a 56 be e5 51 87 be
       -0.37240672 -0.9422367 -0.20933087 -0.26429668
000040 0d e7 d7 be 8e 82 f5 bd ff f8 24 be 13 fa b9 be
       -0.42168465 -0.11987792 -0.1611061 -0.36323604
000050 41 04 fc bd 16 6b 5c be 92 c5 c7 be 9a 32 55 be
       -0.12305499 -0.21525225 -0.39017922 -0.20820084
000060 63 62 ae be 25 53 9a be ff 57 f0 bd 08 78 f3 be
       -0.34059438 -0.3014156 -0.11735534 -0.47552514
000070 83 96 11 bf c8 0f c8 be 2b cc f1 3e 96 96 d7 3f
       -0.5687029 -0.3907454 0.4722608 1.684283
000080 c2 df 36 be 34 7f 98 3c 5e 8c 93 3e 79 ed 6a 3c
       -0.17858794 0.018615343 0.2881803 0.014338844
000090 6b 25 3a bf 67 5f be 3d 4c 32 3b 3f f2 e9 22 3d
       -0.72713345 0.0929554 0.7312362 0.03977389
0000a0 27 c6 ea 3e fc 04 2f 3f ed c5 06 3e 76 79 16 bf
       0.45854303 0.6836698 0.1316144 -0.58779085
0000b0 7a a0 f8 3d 36 d9 0c bc 05 ea ac 3c d5 83 ff 3d
       0.121399835 -0.008596709 0.021107683 0.12476317
0000c0 31 1a 0a be 8a 5a b4 bf 17 d8 a3 3c 1e dd 59 3e
       -0.13486554 -1.409013 0.0200005 0.21275756
0000d0 24 1c 2d 3d 3c 84 e2 3d 10 05 00 3d e5 d8 b2 3e
       0.042263165 0.11060378 0.031254828 0.34931102
0000e0 6b cd ad 3d 8f 83 10 3f 2a 0f 57 3f 07 dd 42 3e
       0.08486446 0.5645074 0.84007514 0.19029628
0000f0 84 3b bc 3e 37 1f d9 3d 1d de 00 be d5 79 f9 bd
       0.36764157 0.10601657 -0.1258473 -0.12181441
000100 e5 11 be be 4d a5 e9 bd eb 29 03 be 14 f9 77 bf
       -0.37123027 -0.11408482 -0.12808959 -0.9686444
000110 5c c0 6f be 28 db c8 3c 8c a6 70 3e 53 70 9c 3d
       -0.23413223 0.024518564 0.23501033 0.07638612
000120 83 1c cd 3c a2 63 7e bf e9 a6 5f 3d 01 70 4a be
       0.02503801 -0.9937078 0.054602537 -0.19769289
000130 47 75 a5 3f a0 f3 4d 3d 76 01 05 bf 13 36 a4 3e
       1.2926415 0.050281167 -0.51955354 0.32072505
000140 c3 a7 51 3e 28 7d 41 bc 01 f3 81 3e 10 ef 9f 3e
       0.20474152 -0.011809625 0.2538071 0.31237078
000150 f8 73 28 be 21 60 42 3f 07 0a 78 3e ff bd 11 3c
       -0.16450489 0.7592793 0.24222575 0.008895396
000160 69 c3 08 3e 70 56 f9 bd 8b ea 63 3d 89 2c b9 3e
       0.13355793 -0.1217469 0.0556436 0.3616679
000170 09 e1 39 3e 7e 35 9a 3e f3 a2 87 3f a4 6a 06 3f
       0.1815225 0.30118936 1.0596603 0.5250647
000180 d7 0f 01 3e ad 28 a8 3e 38 03 77 3e 6c 23 3f bd
       0.12603699 0.32843533 0.24122322 -0.04666464
000190 43 5d 79 3e 4b cc a7 3d dd 32 04 be fd e3 85 3f
       0.24351983 0.08193263 -0.12910028 1.0460202
0001a0 75 70 c6 bd 6a 3d 14 3c 88 26 69 3d 1a de 76 bd
       -0.09689418 0.009047845 0.056921512 -0.060270406
0001b0 33 6a 07 3f 2f 59 15 bf 1f 2f 0b be 89 70 8d 3f
       0.5289642 -0.5833921 -0.13592194 1.1049968
0001c0 0f 89 ef be 26 a4 bc be 78 ec 5b 3e bd fd 23 3f
       -0.46784255 -0.36843985 0.21476924 0.6405905
0001d0 44 83 65 3e 27 a8 86 3e 08 df 9e 3e 2a e2 ae 3d
       0.22413355 0.26300165 0.31029534 0.08539231
0001e0 4d a7 a4 3e 26 b1 66 3f 3f 29 6b 3e f0 e7 c1 3e
       0.3215889 0.9011406 0.22964953 0.37872267
0001f0 be a9 1b 3f fd d7 c1 3d 17 c4 a5 3e 78 fb 10 3e
       0.6080588 0.094650246 0.32376167 0.14158428
000200 22 c1 35 be f9 ba 41 3e 6a 0c 7a 3f 7f a7 b6 3e
       -0.17749456 0.1891898 0.9767519 0.35674664
000210 45 5d 61 bd 28 3e 62 3c e0 9c a5 bb e6 25 67 3e
       -0.05502059 0.0138087645 -0.0050541013 0.22573051
000220 6e 4b 0f 3f e2 2e 9e 3e 2e d4 14 3e 98 8c ab 3e
       0.5597447 0.30895144 0.14534065 0.33505702
000230 b5 5d 7e 3e 51 ae cd 3e 57 36 ad 3c bc 07 24 3e
       0.24840434 0.40172055 0.021144075 0.16018575
000240 4f 54 73 be d7 54 31 bd 3e 5b 51 be b9 2c 7f 3e
       -0.2376263 -0.0432938 -0.20444962 0.24919404
000250 37 eb 8f bf 5d 26 4c bf a3 36 0c 3e 53 fb 26 3e
       -1.1243657 -0.7974604 0.13692717 0.1630681
000260 f5 8c 34 be 4a fa ee bd 5f 3b 28 3e 91 84 75 3d
       -0.17631896 -0.116688326 0.16428898 0.05994088
000270 4f 7a be 3e f8 45 bd 3f 69 0a 26 3f 96 cc e5 bd
       0.3720269 1.4786978 0.64859635 -0.11220662
000280 ae b1 66 3e 09 d0 8e 3d ba f1 2f 3e 33 57 45 3e
       0.22528717 0.06973273 0.17182055 0.19271545
000290 09 10 65 bd 42 0d 07 bd 83 e3 c8 3f 8d bc d3 bc
       -0.055923495 -0.032971628 1.5694431 -0.025846744
0002a0 d7 f8 00 be 21 c1 1e 3d 67 d3 cb bd 54 6f db 3d
       -0.12594925 0.0387584 -0.09952431 0.107145935
0002b0 d3 05 a0 be 4e bf c0 3d df 06 41 bc e1 ae bd bf
       -0.31254444 0.094114885 -0.011781423 -1.4818994
0002c0 c8 4e 53 3c 30 6f 0c be 7a 67 6a bd 92 ae a7 3d
       0.012897201 -0.1371429 -0.05722759 0.081875935
0002d0 89 30 8b 3e 2b b5 43 3f 24 69 bc 3e 24 fb b1 3d
       0.27185467 0.76448315 0.36798966 0.086904794
0002e0 23 fb 9a bd b4 02 ae be ed 31 c2 be c3 b7 22 bf
       -0.07567432 -0.33986437 -0.37928715 -0.6356165
0002f0 4b bb 9d be 89 cd ee 3d 1c d8 13 bf b2 2a c5 3c
       -0.30806956 0.116602965 -0.5775163 0.02406821
000300 4c d4 1d 3f a3 d6 45 bf a4 f0 ca be 41 fa f6 3d
       0.61652064 -0.77280635 -0.3963672 0.12059451
000310 84 0e ab 3e df 10 68 3e e2 2f d2 3d 16 e8 8b bf
       0.33409512 0.22662686 0.10263039 -1.0930202
000320 2d 23 ef be 0e 0a fa 3e ca 08 4b bf 6d 97 97 be
       -0.46706524 0.48835796 -0.79310286 -0.29607716
000330 40 cf 73 be be e7 97 3e b4 b5 08 3e 2e 67 31 be
       -0.23809528 0.29668993 0.13350564 -0.17324516
000340 93 05 87 be 7b 6c e3 bd a7 b3 ec be ee 86 d5 be
       -0.2637144 -0.111046754 -0.46230814 -0.41704506
000350 d8 0a fe be ea 11 69 be 6e 54 95 be 5c e5 4e be
       -0.49617648 -0.2276074 -0.29165977 -0.20204681
000360 54 ba 4b 3f 41 89 9c 3e 86 82 6f be 7b 47 38 3f
       0.7958119 0.30573466 -0.23389634 0.7198407
000370 2b a8 94 3e 37 ad 71 be 8f 3a f8 bd 0b bb 50 be
       0.29034552 -0.23601232 -0.12120544 -0.20383851
000380 0e 85 56 be a2 c3 e0 3d f1 12 c0 bd e0 75 d3 be
       -0.20949194 0.10974814 -0.09378613 -0.4130087
000390 de 16 8c 3e 65 c1 be 3f 6a 41 e1 bb 38 fd 42 be
       0.27361196 1.4902769 -0.006874253 -0.19041908
0003a0 b8 bd ba 3e 41 57 b4 bd 98 7f 90 3f bb 5d 1f 3f
       0.3647287 -0.08805705 1.1288939 0.62252396
0003b0 ef 95 83 3d 36 37 36 3e b4 33 8e bd fd 4b 88 be
       0.06425082 0.17794499 -0.06943455 -0.26620474
0003c0 f7 b7 29 be 24 fd 9e bd 9b 81 93 bd 4e 0f 33 bf
       -0.16574083 -0.077631265 -0.07202455 -0.6994523
0003d0 8a 85 b9 bf f3 60 42 3d 1d 16 23 bf ff 54 6b 3e
       -1.4493878 0.04745574 -0.6370562 0.22981642
0003e0 20 b0 16 3f 30 53 5f 3f 76 b6 94 3f 81 5f 7b 3e
       0.58862495 0.8723631 1.1618183 0.2454815
0003f0 1c f5 b6 be 1b 07 3e bf 4c 24 ad be 6b 25 86 be
       -0.3573388 -0.7422959 -0.33816755 -0.26200423

16 f4 [32]
000000 00 00 00 00 00 00 00 00 00 00 00 00 00 00 00 00
       0.0 0.0 0.0 0.0
000010 00 00 00 00 00 00 00 00 00 00 00 00 00 00 00 00
       0.0 0.0 0.0 0.0
000020 00 00 00 00 00 00 00 00 00 00 00 00 00 00 00 00
       0.0 0.0 0.0 0.0
000030 00 00 00 00 00 00 00 00 00 00 00 00 00 00 00 00
       0.0 0.0 0.0 0.0
000040 00 00 00 00 00 00 00 00 00 00 00 00 00 00 00 00
       0.0 0.0 0.0 0.0
000050 00 00 00 00 00 00 00 00 00 00 00 00 00 00 00 00
       0.0 0.0 0.0 0.0
000060 00 00 00 00 00 00 00 00 00 00 00 00 00 00 00 00
       0.0 0.0 0.0 0.0
000070 00 00 00 00 00 00 00 00 00 00 00 00 00 00 00 00
       0.0 0.0 0.0 0.0

17 f4 [36, 32, 1, 1]
000000 08 23 d6 3e 02 5a 18 bd f6 ac a6 3d cd 06 f8 3d
       0.41823602 -0.037195213 0.081384584 0.12110672
000010 13 cf 78 3c 91 f6 a8 bc f7 f5 f6 3c 0b 4a c7 3c
       0.015186089 -0.020625385 0.030146582 0.024327299
000020 bd a2 40 3e 34 23 a9 bd c4 37 1d 3c 71 12 a9 bb
       0.1881208 -0.082586676 0.009595815 -0.005159669
000030 b5 d5 f5 bd 98 30 02 3e 8e f6 63 bc 98 88 4e 3d
       -0.12003652 0.1271385 -0.013913764 0.050423235
000040 60 23 8b bd cb ad 8d be 43 ba 25 3d 10 37 ac 3b
       -0.067938566 -0.27671656 0.040460836 0.0052555874
000050 b3 a4 21 bd 90 7c 33 3d 00 be c5 3d 94 40 29 bc
       -0.03946371 0.043819964 0.0965538 -0.010330338
000060 03 90 b4 bd d5 0c a3 3b c4 6a 52 3d 2f 14 fa 3b
       -0.088165306 0.004975895 0.05137135 0.0076318006
000070 c8 95 c0 3d c5 21 1e 3e 04 99 9a 3d 37 31 76 be
       0.094035685 0.1544257 0.07548717 -0.24042211
000080 5d 13 66 3d 5d 1a 7b 3e 3f 4d b5 3d e6 20 44 bd
       0.05617081 0.24521776 0.08852624 -0.047882937
000090 bc 48 2b 3e f7 b8 a2 bc 82 87 28 3d 98 9c 2f 3e
       0.16726965 -0.019863589 0.041144855 0.1714958
0000a0 c0 2d 71 3d f5 0f 91 3d c0 d0 13 3d 4f ba 21 bc
       0.05888152 0.07083122 0.03608775 -0.00987108
0000b0 b7 49 4e 3e af 6b 10 3e 6f 9d b6 bd 2b 6b e2 3b
       0.20145307 0.14103578 -0.08916747 0.006909748
0000c0 fd 13 82 be 4a d6 c2 bd b3 40 b0 3d 23 c7 79 bd
       -0.25405875 -0.09513529 0.086060904 -0.060980927
0000d0 c8 47 9b 3c d4 b2 2e 3e 51 fc f4 bd 3b 94 fa 3d
       0.018955126 0.17060405 -0.11962188 0.12235304
0000e0 1b 73 61 3d f8 10 4b bd af ea e0 bd bb f1 73 3d
       0.055041414 -0.04957673 -0.10982262 0.059556704
0000f0 a9 08 9e 3e 93 f1 2b 3e 7f e1 11 3e 9f 96 f9 bd
       0.30865982 0.16791372 0.14246176 -0.12186932
000100 cc fa 22 bd ca 85 3a bd d2 ea 2b 3d a0 a0 24 be
       -0.03978996 -0.045537747 0.04197199 -0.16076899
000110 45 5b 67 bd 0a 2c 8f 3c 37 ba 79 bd b3 28 b8 3e
       -0.056483526 0.017477054 -0.060968604 0.3596855
000120 32 80 02 be 79 09 09 bc 6e 98 42 3c de 60 ee 3d
       -0.12744215 -0.008364075 0.011877162 0.1163957
000130 7d ef e4 bd f7 8a 9b be f9 c7 a7 bd c9 8c 21 bd
       -0.11178491 -0.3037946 -0.08192439 -0.039440904
000140 f6 99 fa 3c 42 aa 5f bd 69 45 60 3c 70 78 04 3e
       0.030590992 -0.05460573 0.013688424 0.12936568
000150 1a a9 3e bd 31 a1 48 be ce 9e 91 bc f1 35 d8 bd
       -0.046547987 -0.1959274 -0.01777592 -0.105571635
000160 88 b4 1b bd 59 c3 05 be e1 bf 4a be cd 52 97 bc
       -0.038013965 -0.130628 -0.19799758 -0.0184721
000170 e7 ff 15 3e 8a 65 44 3e f3 68 9f 3e d8 f2 84 be
       0.146484 0.19179359 0.31134757 -0.25966525
000180 eb 28 99 3c 5a 66 14 bd 80 bf d3 3c 56 ee 22 be
       0.018696269 -0.036230423 0.02584815 -0.1591123
000190 23 a8 b6 3b 1c cd 91 bd 65 0a 48 3d 8d 1c a0 bd
       0.0055742427 -0.071192 0.048838038 -0.07817946
0001a0 ea 99 9f 3d b6 63 93 3d 67 0b 62 3d d8 2e ae 3a
       0.07793029 0.07196753 0.055186655 0.0013289107
0001b0 9d f4 b4 bd 17 dd 9d 3d c6 4e 16 bb 41 e8 a9 bd
       -0.08835719 0.07708185 -0.0022935136 -0.08296252
0001c0 ae e3 08 3e 1d 86 a5 bd 3e 47 0b bd 3c bb 56 bd
       0.13368103 -0.08082221 -0.03400349 -0.052424654
0001d0 a0 76 1b 3d 7a 0e 77 3d be 3e 8f 3d d0 86 b2 bd
       0.037954926 0.06031654 0.06994389 -0.0871712
0001e0 ca 3e 0e 3e b7 1a b0 bd 7a ae 89 3d 62 b5 48 bd
       0.1389114 -0.085988455 0.06722732 -0.049001105
0001f0 ac fe 22 be 57 99 c6 bb 4f 10 08 3e b3 ba 7d 3c
       -0.15917462 -0.00606076 0.13287471 0.015486407
000200 80 94 9d bd ba c5 7e 3d f0 fc 85 bd ee e0 bb be
       -0.0769434 0.062200285 -0.065423846 -0.36695045
000210 8d 6d 30 be cd 7e c8 3d bd 97 f8 bd 58 ee 1d 3e
       -0.1722929 0.0978981 -0.12138317 0.15422952
000220 e6 17 5c be c3 f9 93 3d aa 07 81 bd cc ee c0 bc
       -0.21493492 0.07225373 -0.0630029 -0.023551367
000230 92 c6 d3 bd 62 ec af be c1 cc 8a 3d 50 ed cf bc
       -0.10340609 -0.34360033 0.06777335 -0.025381714
000240 4a 74 3a be 48 4f 1c be e7 68 43 3e cd 3e 5c 3d
       -0.18208423 -0.15264618 0.19082986 0.05377083
000250 3f fa 82 3d 9c df 14 3e 3d 99 b8 3d da 01 c6 bb
       0.06395387 0.14538425 0.09013603 -0.006042701
000260 82 2b f6 3c ff 48 21 be ef fd 72 bc 6d d9 b0 bc
       0.030050043 -0.15750502 -0.01483105 -0.021588052
000270 dc c4 6d 3d c2 37 6b 3e 54 11 6c bd c9 b4 06 3e
       0.058049068 0.22970489 -0.057633713 0.13154902
000280 44 98 28 3e 5d 82 5a 3d 42 2f e9 bc 73 e1 9b be
       0.16464335 0.05334698 -0.028464917 -0.30445442
000290 30 b5 c5 bc 78 48 00 3f 09 97 ad 3d 19 84 1c 3d
       -0.024134248 0.5011058 0.08476073 0.038211916
0002a0 32 29 db bc 02 3c b3 bd 2f a5 c9 3d 80 cc 22 3a
       -0.026753042 -0.0875168 0.098459594 0.00062102824
0002b0 56 35 87 be 5b 8f 1d bd 9b 49 b1 bd cf 34 e4 bc
       -0.2640788 -0.038466793 -0.08656617 -0.027857212
0002c0 1d 23 3f 3e 31 41 09 be f9 9e 31 3c 0b e6 df bb
       0.18665738 -0.13403775 0.010841125 -0.006832843
0002d0 ca 9e ac 3d 6e 90 95 bd f7 13 ef bc f5 cb 1c bc
       0.08428724 -0.073029384 -0.029184325 -0.0095701115
0002e0 ae a4 59 bb 0f 09 cc 3d c9 06 05 bd f7 23 88 bd
       -0.003320973 0.09962665 -0.032477174 -0.06647485
0002f0 ae 7b e3 3d b0 fa 95 be 89 d4 36 3d 94 96 7d bd
       0.111075744 -0.29292822 0.044636283 -0.06191118
000300 a9 a1 2f bd bb b4 1c be e4 79 98 3e 49 86 3e 3d
       -0.04287878 -0.15303318 0.29780495 0.046514783
000310 f8 37 a3 3e 41 58 e0 3d 26 6e 96 be e7 10 47 bd
       0.31878638 0.10954333 -0.29380912 -0.048600104
000320 99 b5 0f 3d 54 65 80 3c 0a 62 36 3d ac ed 93 bd
       0.035085294 0.015673317 0.04452709 -0.07223067
000330 f1 90 bb bd 24 61 09 3d 1a 83 29 3e 0a eb 28 3e
       -0.09158505 0.033539906 0.16553918 0.1649591
000340 98 5e 77 be 45 c0 df 3d 7b 59 ff 3c d9 23 a2 bd
       -0.24157178 0.109253444 0.031170597 -0.07916994
000350 06 bc 8b be 62 96 27 3e fe 92 34 be 05 5c 58 3c
       -0.27291888 0.1636596 -0.17634198 0.013205533
000360 86 a7 a5 bc ef bd 75 bc 1b 4c c1 bc d8 59 46 be
       -0.020221483 -0.014998897 -0.02359586 -0.1937021
000370 1b 0c 47 3d a2 2f 3d 3e 3b d5 ae be 16 70 65 bd
       0.04859553 0.18475202 -0.34147057 -0.056015097
000380 89 ca 1e 3d 9a fb 5b 3e 67 eb 63 be c0 8f 01 3e
       0.03876737 0.21482697 -0.22257768 0.12652493
000390 24 b2 53 bd 73 a8 97 3d d2 b5 e3 bd 73 b1 08 3e
       -0.05168356 0.07405176 -0.11118664 0.13348942
0003a0 bc 65 e9 3d ae 6e 27 bc e2 67 bf 3b c1 a4 18 3d
       0.113963574 -0.010219259 0.005841241 0.037266497
0003b0 16 5f 2d be 26 9f 8c bb 2e e2 3a be 31 4f cc 3d
       -0.16930804 -0.004291433 -0.18250343 0.09976042
0003c0 63 d1 3c 3d 3b d9 9d bd 96 58 33 bd 6d 1c 2a 3d
       0.046098124 -0.07707449 -0.043785654 0.041531015
0003d0 f8 62 5d bc 4b 2d fb bd 72 7f 3c 3d 41 ca 4d 3d
       -0.0135123655 -0.12264498 0.04601998 0.050241712
0003e0 34 77 36 3e 0c 37 41 be 5b 30 73 bd b2 0d e9 bd
       0.1781891 -0.18868655 -0.059372287 -0.11379565
0003f0 98 75 6b 3e b4 9d 6f 3e ae 01 51 bb 11 9b 0a bd
       0.22994077 0.23400003 -0.003189187 -0.03383929

18 f4 [36]
000000 98 da 29 3e b0 d6 e5 be 1d bf 1d 40 ad 15 dd 3c
       0.16587293 -0.44890356 2.4647896 0.026987875
000010 00 9e 1f 40 01 c2 3c 3f ff fa 8d bf 5f d8 9d 3f
       2.4940186 0.73733526 -1.1092223 1.2331656
000020 61 1d bc 3e ed e2 75 3f c0 b8 a5 3f 99 63 06 40
       0.36741164 0.96049386 1.2947006 2.099829
000030 fa 20 b1 be 97 66 b0 be 6f 71 40 c0 a2 e0 c0 3f
       -0.34595472 -0.3445327 -3.0069234 1.5068552
000040 b4 df d5 3f ce d5 0a bf 37 16 2e 3f 58 20 5e 3f
       1.6708894 -0.5423249 0.6800265 0.867681
000050 a3 e5 ab be e0 83 71 3d 66 97 ce 3f 7c 99 25 bd
       -0.33573636 0.058963656 1.6139953 -0.040429577
000060 e0 f4 68 3f 47 c2 7d 3f f2 7b 1a 40 a9 36 22 40
       0.9099865 0.9912457 2.413815 2.5345862
000070 f4 40 e9 3e 03 49 24 3f 30 68 94 3f d0 0c 81 3f
       0.45557368 0.6417391 1.1594296 1.0082035
000080 28 d5 a0 3c 7f 49 bc be d2 ea e8 3e f7 7d 8f bf
       0.01963289 -0.36774823 0.45491654 -1.1210316

19 f4 [36, 1, 3, 3]
000000 05 2c 1a 3e 49 fd 82 be 64 0a 09 bf e4 8f b5 be
       0.15055855 -0.25583866 -0.5353148 -0.35461342
000010 41 8d 0a bf 5b f3 44 be 9e eb e7 be ef e6 6f bd
       -0.54121786 -0.19233458 -0.4529695 -0.058569845
000020 10 18 ec 3e 7e a3 0f bf 02 bc c1 be 6c e6 23 3f
       0.46112108 -0.56108844 -0.3783875 0.6402347
000030 c0 01 da be cc 5e 46 be da bf 1f 3f 62 e2 d4 3d
       -0.4257946 -0.193721 0.6240212 0.103947416
000040 ad 84 0f 3f 54 e6 c8 3e d7 1b 82 be a8 15 ad be
       0.5606182 0.39238226 -0.25411865 -0.33805585
000050 cf bd 87 3e f3 37 ed be 85 4b e5 bd 52 5a 60 3f
       0.26512 -0.46331748 -0.11196045 0.8763782
000060 23 4f 72 be 69 8d a9 be 83 06 ba 3e ec cd 52 be
       -0.23663001 -0.331157 0.36333093 -0.20586365
000070 42 37 43 3f ab 32 bf 3e c4 e1 c1 bd 98 f0 82 3f
       0.7625619 0.37343344 -0.094668895 1.0229673
000080 df 2a 70 3e ab ce 8d be ce 5c 25 bf 8e c5 82 be
       0.23453854 -0.27696738 -0.64594734 -0.25541347
000090 08 c6 d4 3e e7 91 34 3f 8f 11 75 be 15 ab 08 3e
       0.41557336 0.7053513 -0.2393248 0.13346513
0000a0 8e 29 53 3f ba 0e a6 be 57 aa 0d 3c d5 fb 24 3e
       0.8248528 -0.3243311 0.008646569 0.16111691
0000b0 fb 10 1a bd fb 5c 1d 3e ab a8 2f 3f b4 0c d2 3e
       -0.03761385 0.153675 0.6861674 0.41025317
0000c0 d1 75 44 bf 8e 53 19 bf e6 55 34 3f fb ca 94 be
       -0.76742274 -0.5989312 0.7044357 -0.29061112
0000d0 53 1e 25 bf 05 33 e4 bd 6b 96 a2 3d e7 c9 75 3e
       -0.64499396 -0.11142544 0.07938846 0.24002801
0000e0 91 f1 dd 3d f6 83 48 bd f5 04 b7 3f 32 4e be 3d
       0.10837091 -0.048953973 1.4298388 0.09292258
0000f0 4b 71 83 bd 20 78 c9 3d 33 74 d2 3d d3 8c 39 3e
       -0.06418093 0.09837365 0.102760695 0.18120126
000100 57 32 ff bd 86 ad ab be ad 1b bf 3e c9 fd 1d 3f
       -0.124607734 -0.33530825 0.37325802 0.6171537
000110 e0 00 36 bf 41 ca 9c 3e bb e5 cc 3d eb 5c 7e be
       -0.71095085 0.30623057 0.10004755 -0.24840133
000120 f6 95 5e 3e 3b 8f b1 3c 2b 79 17 be e9 8d 00 3e
       0.21736893 0.021674743 -0.14792316 0.12554134
000130 50 91 0d bf 2d 62 04 bf e4 d7 b1 bd c1 8a 4e bf
       -0.55299854 -0.51712304 -0.08683756 -0.8068047
000140 95 fc d5 be 72 37 34 3e 33 cf 02 3f 0c ff bc 3e
       -0.41794267 0.17599276 0.5109741 0.36913335
000150 65 d8 47 3e 39 e3 66 3f 5f 68 35 3f 83 8f 07 bd
       0.19516142 0.90190464 0.7086238 -0.033095848
000160 89 86 e8 3d 93 e4 3c 3e a9 17 1f be ae b7 f0 3e
       0.113537855 0.18446569 -0.1553637 0.47015136
000170 08 0c 05 3f 54 f9 19 bf 5c 07 31 bf 71 fd 03 3f
       0.51971483 -0.6014607 -0.69151855 0.51558596
000180 ed 84 b9 be c3 d4 91 be d6 cb 2a be 15 6b c4 bd
       -0.36234227 -0.28482637 -0.1667932 -0.09590737
000190 68 cd 7e be eb da 35 be 24 9c 32 bd c6 58 a9 3f
       -0.24883044 -0.17759292 -0.04360594 1.3230217
0001a0 45 87 05 be f0 86 b9 bc 42 db ec 3d a6 39 88 bd
       -0.13039882 -0.022647351 0.115652576 -0.066516206
0001b0 6c b9 bd be 08 3b 60 3e b4 e1 fe 3e 7d 8f 0c bf
       -0.37055528 0.21897519 0.49781573 -0.54906446
0001c0 a1 9c 8d bf 1d 1a 39 3d 24 5d 0b be c7 5b 11 bf
       -1.1063424 0.04519092 -0.13609749 -0.56780666
0001d0 9a 88 15 be a4 4e 9e bd ed a6 76 3e 72 f9 96 3b
       -0.1460289 -0.07729843 0.24087115 0.004607373
0001e0 50 3e 24 3e 82 ea bd 3f b8 46 b3 3e e5 61 eb bd
       0.16039395 1.4837191 0.35014892 -0.11493281
0001f0 ec ba ae bd 54 ca 8f be f3 48 04 3e a1 59 76 3e
       -0.08531746 -0.28084052 0.12918453 0.24057628
000200 39 e3 82 3e 03 c0 51 3e b9 44 9f 3f 3d e2 0a 3e
       0.25563982 0.20483403 1.2442847 0.13562866
000210 ab a8 2a ba 1a 84 1b 3e 18 4c 22 3d a8 cc 21 3e
       -0.0006510119 0.15187111 0.03962335 0.15800726
000220 c3 7b 03 3f 32 0e cc 3d 5a e5 0c be 15 bb 18 3f
       0.5136072 0.09963645 -0.13759366 0.59660465
000230 b1 96 a4 3e 9b fc 96 be 46 b0 67 3e e7 26 a4 3e
       0.32146218 -0.29489598 0.22625837 0.3206093
000240 17 fb fc be 42 d2 22 bd ac ae 21 3e 70 2b 36 bf
       -0.49410316 -0.0397513 0.15789288 -0.7116003
000250 f5 24 38 3f 62 0b 64 3f 26 7e af 39 15 44 1f 3e
       0.7193139 0.8907987 0.0003347259 0.15553315
000260 5a 3f ae 3e f4 60 0d bf 5c d6 0b bf 13 11 04 bd
       0.34032708 -0.55226064 -0.5462396 -0.032242846
000270 86 55 8d bf c5 d9 8e bf 7f 99 2e bf 5a b8 c4 be
       -1.1041725 -1.1160208 -0.68202966 -0.384219
000280 f7 08 a7 be 3b 54 c4 3d f4 c2 b6 be e4 1c 35 bf
       -0.32624027 0.09586378 -0.35695612 -0.7074721
000290 a8 a2 81 3e 51 b4 44 bf 79 58 7c 3d 42 f0 7b 3f
       0.2531941 -0.7683764 0.06160781 0.9841348
0002a0 54 49 fa 3d e5 8e e7 3e 4e dc 59 bd aa 2c 04 39
       0.122210175 0.45226207 -0.053188615 0.0001260514
0002b0 ba 05 6c bf 80 c4 6a 3d 94 76 59 be 9a 02 79 be
       -0.9219624 0.057316303 -0.2123664 -0.24317399
0002c0 99 85 11 3f 78 19 ed 3e 0c 88 6b 3f e3 30 fe 3e
       0.5684448 0.46308494 0.92004466 0.49646673
0002d0 f8 63 08 bc 42 06 8a be f5 c4 66 be 55 22 3a bd
       -0.008324616 -0.269579 -0.2253607 -0.045442898
0002e0 68 a1 53 bf 01 5f 1a 3e b9 11 4c bd 80 8b 0f bf
       -0.8266816 0.15075304 -0.04982159 -0.56072235
0002f0 a4 91 43 be 67 14 89 3d 98 5f 85 be 03 8a 03 bf
       -0.19098526 0.066933446 -0.26049495 -0.51382464
000300 fe f1 c0 bc 2a 35 8d bf 31 87 de be 07 2f 8f bd
       -0.02355289 -1.1031849 -0.43462518 -0.06991392
000310 af 63 1c 3e c2 72 18 be df 7a eb 3e 0b 25 cb 3e
       0.15272401 -0.14887527 0.4599218 0.396767
000320 f3 d4 90 be 6d db 1a 3f 18 90 b0 3f fe d8 1e 3d
       -0.28287467 0.6049107 1.3793974 0.03878116
000330 4d 46 a3 be af ee f4 bc 22 17 c0 3d 22 2f 5c be
       -0.31889573 -0.02989897 0.09379412 -0.21502355
000340 4a ba 40 bf cc 02 57 bf 54 36 97 3e b7 a4 b1 be
       -0.75284255 -0.8398864 0.29533637 -0.3469598
000350 cc 9f f6 be 96 4a 7d 3e 52 10 c5 be 87 f0 de bd
       -0.4816879 0.24735484 -0.38489014 -0.10885721
000360 b4 83 0c 3a a5 25 e4 be 77 e7 83 be 2e af 2b 3e
       0.00053602015 -0.4455997 -0.2576253 0.16766044
000370 2e 57 37 bf f1 57 2c bf 36 57 40 3e 81 ba a7 3c
       -0.716174 -0.6732169 0.18783268 0.020474674
000380 a3 8d a5 be 70 27 08 be e1 83 01 3d 22 cd 81 3e
       -0.32334623 -0.13296294 0.03161991 0.25351816
000390 6f e1 16 3f 7c b2 6f 3f ad c0 e2 3d 0f a7 0a 3f
       0.58937734 0.9363172 0.11071906 0.5416116
0003a0 a2 f8 9f bd 8c e2 ae be cd 0f e2 bd a4 44 05 3f
       -0.07811095 -0.34157217 -0.1103817 0.5205786
0003b0 c3 f1 a8 3e 40 d0 ea be 79 5f 71 3d 39 30 af 3d
       0.3299695 -0.45862007 0.05892894 0.085541196
0003c0 c0 7a 88 be 1b 13 0a bf 3f e9 10 bf 2e 09 76 be
       -0.2665615 -0.539354 -0.56605905 -0.2402694
0003d0 fb d1 0c 3f 21 ed 2e 3f 1c f9 04 bf 06 c9 4b 3d
       0.55007905 0.6833058 -0.5194261 0.049752258
0003e0 f1 5b 17 3f 2d 61 c9 bd c8 78 04 bf 38 8d 14 bf
       0.59124666 -0.09832988 -0.517468 -0.5802798
0003f0 6b 70 88 be 72 0e 96 3f 6b 5c 68 3f 40 0d 62 bf
       -0.26648268 1.1723158 0.9076602 -0.8830147

2 f4 [24]
000000 a1 66 7a 3e de 7c a6 3e 99 bf bf 3b 20 e8 01 3e
       0.24453212 0.3251714 0.0058516976 0.12686205
000010 c6 a1 0e 3e 9b 31 64 3d e5 7b 38 bf 74 5e de 3d
       0.13928899 0.05571137 -0.7206405 0.10857859
000020 08 dc 2e bf d0 21 ab 3d 63 96 55 3e 9f 2e 5d 3e
       -0.6830449 0.083560586 0.20858149 0.21599816
000030 1a 36 af be 05 02 40 3e e8 09 e7 3d 60 59 57 3e
       -0.34220964 0.1875077 0.11281186 0.21030188
000040 4a 68 33 3e bd 4c aa bf 55 11 82 be 3f 21 e9 3c
       0.17520252 -1.3304669 -0.25403848 0.028458236
000050 f0 ef c7 bd 66 54 0c 3d d7 eb 82 bf 0a f7 9d bf
       -0.09762561 0.034260176 -1.0228223 -1.2341015

20 f4 [36]
000000 00 00 00 00 00 00 00 00 00 00 00 00 00 00 00 00
       0.0 0.0 0.0 0.0
000010 00 00 00 00 00 00 00 00 00 00 00 00 00 00 00 00
       0.0 0.0 0.0 0.0
000020 00 00 00 00 00 00 00 00 00 00 00 00 00 00 00 00
       0.0 0.0 0.0 0.0
000030 00 00 00 00 00 00 00 00 00 00 00 00 00 00 00 00
       0.0 0.0 0.0 0.0
000040 00 00 00 00 00 00 00 00 00 00 00 00 00 00 00 00
       0.0 0.0 0.0 0.0
000050 00 00 00 00 00 00 00 00 00 00 00 00 00 00 00 00
       0.0 0.0 0.0 0.0
000060 00 00 00 00 00 00 00 00 00 00 00 00 00 00 00 00
       0.0 0.0 0.0 0.0
000070 00 00 00 00 00 00 00 00 00 00 00 00 00 00 00 00
       0.0 0.0 0.0 0.0
000080 00 00 00 00 00 00 00 00 00 00 00 00 00 00 00 00
       0.0 0.0 0.0 0.0
